cuda_trizio/simple_nn/cuda_cv_4_2.pt (torch, 6372 bytes, 10 tensors)

w f4 [2, 2]
000000 00 00 80 3f 00 00 00 00 00 00 00 00 00 00 80 3f
       1.0 0.0 0.0 1.0

b f4 [2]
000000 00 00 00 00 00 00 00 00
       0.0 0.0

MeanIn f4 [4]
000000 00 00 00 00 00 00 00 00 00 00 00 00 00 00 00 00
       0.0 0.0 0.0 0.0

RangeIn f4 [4]
000000 00 00 80 3f 00 00 80 3f 00 00 80 3f 00 00 80 3f
       1.0 1.0 1.0 1.0

MeanNN f4 [2]
000000 00 00 00 00 00 00 00 00
       0.0 0.0

RangeNN f4 [2]
000000 00 00 80 3f 00 00 80 3f
       1.0 1.0

MeanOut f4 [2]
000000 00 00 00 00 00 00 00 00
       0.0 0.0

RangeOut f4 [2]
000000 00 00 80 3f 00 00 80 3f
       1.0 1.0

weight f4 [2, 4]
000000 cc b8 c3 3e 66 7b d4 3e 20 e5 ef bd 1c 2a eb 3e
       0.38226926 0.41500396 -0.11713624 0.45930564
000010 b0 5c e0 bd 38 a2 ce 3d 10 45 79 be 28 58 96 3e
       -0.10955179 0.100895345 -0.24342752 0.29364133

bias f4 [2]
000000 cc ac e1 3e 0e cf bb be
       0.44077146 -0.36681408
