cuda_trizio/plumed_simple_model/cuda_cv_10_1.pt (torch, 9291 bytes, 5 tensors)

MeanIn f4 [2]
0.0 0.0
00000000: 0000 0000 0000 0000

RangeIn f4 [2]
1.0 1.0
00000000: 0000 803f 0000 803f

weight f4 [10, 2]
0.5406104 0.5869042 -0.16565566 0.6495563 -0.15492962 0.14268756 -0.3442585 0.41527155
0.62334496 -0.5187534 0.6146145 0.13234161 0.5224168 0.09576388 0.34095848 -0.09983712
0.5450986 0.10451668 -0.33010566 0.18024032
00000000: 7165 0a3f 5b3f 163f a3a1 29be 5249 263f
00000010: dfa5 1ebe b01c 123e a642 b0be 799e d43e
00000020: 8993 1f3f 06cd 04bf 6057 1d3f 8f84 073e
00000030: 1bbd 053f da1f c43d 1c92 ae3e 6777 ccbd
00000040: 958b 0b3f d70c d63d 9c03 a9be eb90 383e

bias f4 [10]
-0.32579 -0.082924426 -0.2871973 0.4690741 -0.558169 -0.32598352 -0.1996691 -0.42516384
0.06673894 -0.6983946
00000000: f2cd a6be 48d4 a9bd 860b 93be 7b2a f03e
00000010: 2ae4 0ebf 50e7 a6be 0e76 4cbe 13af d9be
00000020: 6dae 883d fdc9 32bf

weight f4 [1, 10]
0.28558818 -0.26862544 0.24413648 0.052626356 -0.10268059 0.19541293 0.04928434 0.25550044
0.03456992 -0.099729754
00000000: 9d38 923e 4689 89be eafe 793e bc8e 573d
00000010: 334a d2bd 541a 483e 60de 493d f4d0 823e
00000020: 3099 0d3d 1d3f ccbd
