cuda_trizio/plumed_freeze/cuda_cv_300_1.pt (torch, 96800 bytes, 9 tensors)

MeanIn f4 [2]
00000000: 0000 0000 0000 0000
0.0 0.0

RangeIn f4 [2]
00000000: 0000 803f 0000 803f
1.0 1.0

weight f4 [100, 2]
00000000: 7165 0a3f 5b3f 163f a3a1 29be 5249 263f
00000010: dfa5 1ebe b01c 123e a642 b0be 799e d43e
00000020: 8993 1f3f 06cd 04bf 6057 1d3f 8f84 073e
00000030: 1bbd 053f da1f c43d 1c92 ae3e 6777 ccbd
00000040: 958b 0b3f d70c d63d 9c03 a9be eb90 383e
00000050: f2cd a6be 48d4 a9bd 860b 93be 7b2a f03e
00000060: 2ae4 0ebf 50e7 a6be 0e76 4cbe 13af d9be
00000070: 6dae 883d fdc9 32bf ef7a 233f 2ac5 19bf
00000080: 7bc0 0b3f 2c00 f13d 771c 6bbe c7b8 df3e
00000090: 2eb2 e13d ca41 123f d34f 9e3d c55a 64be
000000a0: 3a8c 423e da5a 44be e05d 983e 3a9e 213f
000000b0: a847 d13e fb45 9ebe fcfd d03e 728e 013e
000000c0: 1ddb b73e 16aa dcbe 4c31 33bf a1e0 8bbe
000000d0: 91d8 0abf 8d88 143f 958e 503e 19f6 953e
000000e0: 5fff 643e 5789 49bc cfaa 0d3f e09d 00bf
000000f0: c85c 363d 1f1b f7be 4c45 5f3e 025c 79be
00000100: 7cde 5d3e f8da 16be ce22 163f bd94 d6be
00000110: 4ceb d7be a3ee d7be 08d1 223f b14c 713e
00000120: 9c2f 2e3f 1664 15bf 7b8c 33bf 7b9f 0dbf
00000130: 1a8a f3be e4a3 923e 26a3 813e d369 163f
00000140: 49f7 babe 58ce f6be fd16 c03e 7056 92be
00000150: daba db3e f2d2 2bbe 4d1a cf3e 6fa5 0cbf
00000160: e6b3 b6be 0ec1 5c3e 4e13 193e 1f9c 38be
00000170: d9cc d73e 021e f63e 3945 03bf eb47 c1be
00000180: a5c0 253f c553 74be 4059 80be 4127 2fbf
00000190: 2a54 cfbe 8ee0 343e 8325 bfbd 3f66 03bf
000001a0: 2ce0 873c 4a4d f7be 8293 19bf 755c c7be
000001b0: 296e 1ebf 1886 e6be d3f2 343f 94c2 083e
000001c0: a721 5f3e 7ad5 28bf 0bc7 edbe 6b03 71be
000001d0: 1673 e23d 6448 1fbf 22fe 9bbe bdbd d8be
000001e0: 396c 003b 3bb7 86be b4b3 48bd 0254 f5be
000001f0: 6880 f8be c936 d3be 8dd9 77be 07e0 0ebf
00000200: 7dc7 173f 0cb4 0fbe 9abf 1b3f 0a9c 613e
00000210: 6049 19bf 238b fa3e e339 47be 63c7 8abe
00000220: 4142 16bf 59f6 33bf 8e2a 4f3e 962b 1ebe
00000230: 35f3 8c3e 538e 14bf df64 063f bfe0 04bf
00000240: c60e fabd e13c 173e 32e7 ba3e 8723 123f
00000250: b7e6 243f c488 0fbf 003a 363e e4b8 9bbe
00000260: 1db2 9ebd be7d 07bf 0ee2 243f f6db 04bf
00000270: f57d c13e 2e78 7e3e 114b 6b3e 1ebc c3be
00000280: ad89 243f c51d 1f3e 6b4a ba3d 2f86 1fbf
00000290: cbfa 973e c740 d9bd d4db a5be 667c 1b3f
000002a0: a26e 213e b54e c8be eb3d b7be ba50 0abd
000002b0: fc25 ca3e b806 39be f791 cebe 83f4 77be
000002c0: 283c 07bf 601d 813e c21d 0c3f 3d6b 2abf
000002d0: df2a 283e b506 bb3e e74b 033e 4fee 80be
000002e0: 97f6 bc3e 8f41 be3e 4960 873e c678 febd
000002f0: 91bc 3fbe c7ec 9a3d 8dd2 ffbd 9bc6 57be
00000300: e86a e73e 6491 1b3f 0d5d 8fbd 5f1e 22be
00000310: 1e0e 293c fcee 2cbd 8c13 2e3e 2be9 4a3e
0.5406104 0.5869042 -0.16565566 0.6495563 -0.15492962 0.14268756 -0.3442585 0.41527155
0.62334496 -0.5187534 0.6146145 0.13234161 0.5224168 0.09576388 0.34095848 -0.09983712
0.5450986 0.10451668 -0.33010566 0.18024032 -0.32579 -0.082924426 -0.2871973 0.4690741
-0.558169 -0.32598352 -0.1996691 -0.42516384 0.06673894 -0.6983946 0.63859457 -0.60066473
0.54590577 0.11767611 -0.22960077 0.4369566 0.11020313 0.57131636 0.07730069 -0.22300251
0.18998805 -0.19175282 0.2975912 0.6313206 0.40874982 -0.30912766 0.40818775 0.12651995
0.35909358 -0.43098515 -0.69997096 -0.27319816 -0.54236704 0.5802086 0.2036689 0.2928932
0.22363041 -0.012300811 0.5533876 -0.502409 0.044522077 -0.4826288 0.21803778 -0.24351504
0.21666902 -0.14731967 0.5864686 -0.41910353 -0.42171705 -0.42174253 0.63600206 0.23564412
0.68041396 -0.58355844 -0.7013623 -0.5532147 -0.475663 0.28640664 0.25319785 0.58755225
-0.3651679 -0.48204303 0.3751754 -0.28581572 0.42915994 -0.16779688 0.40449753 -0.5493993
-0.35684127 0.2155802 0.1494877 -0.18028305 0.42148474 0.4806977 -0.512775 -0.37750182
0.6474708 -0.2386008 -0.25068092 -0.6841927 -0.404939 0.17663786 -0.09333327 -0.5132789
0.016586386 -0.48301154 -0.59990704 -0.38937727 -0.6188684 -0.4502418 0.7068302 0.13355476
0.21790181 -0.6595074 -0.4644092 -0.2353646 0.11057107 -0.62219834 -0.30467325 -0.4233226
0.0019595756 -0.2631167 -0.048999503 -0.47915655 -0.48535466 -0.41252735 -0.24204083 -0.5581059
0.5928877 -0.14033526 0.60839236 0.2203218 -0.59877586 0.48934278 -0.19455676 -0.27105245
-0.58694845 -0.7029777 0.20231077 -0.15446314 0.27529302 -0.5802967 0.5249767 -0.51905435
-0.12209849 0.14769317 0.36504513 0.5708546 0.6441454 -0.5606806 0.17795563 -0.30414498
-0.07748816 -0.5292624 0.6440743 -0.51898134 0.3779141 0.24850532 0.22977854 -0.3822946
0.64272577 0.155387 0.09096225 -0.6231412 0.29683527 -0.106080584 -0.32394278 0.6073669
0.1576486 -0.3912255 -0.35789427 -0.033768393 0.39482105 -0.18068969 -0.40345737 -0.24214368
-0.52826166 0.25217724 0.54732907 -0.6656988 0.16422604 0.36528555 0.12821923 -0.25181815
0.36906883 0.37159392 0.26440647 -0.124253795 -0.18724276 0.07564693 -0.12491331 -0.21071856
0.4519875 0.60768723 -0.0700017 -0.15831898 0.010318307 -0.0422201 0.16999644 0.19815509

bias f4 [100]
00000000: 7b69 24bf 1e9b 85be 1471 183f b208 8d3e
00000010: 2e0e 10bd 7346 dabe 427f ddbe b026 22bf
00000020: a205 6cbe 2186 743e fcd7 e63e fc26 a73e
00000030: ce02 20bf 6ab7 d9be fd8a e4bd e51b 2f3f
00000040: 867c d13d cd83 3bbe eac7 953e d3e4 89be
00000050: e254 eabe ab1f 043f a09e a4be 4727 11be
00000060: 2d14 34bf 464d f23e 8225 093f c0f1 833e
00000070: b370 fcbe bba7 32bf 2505 13bf 75fc 063f
00000080: 1dd1 ad3e 1d54 183f 41a9 bd3e 2042 373e
00000090: b3e6 e2bb 92aa 09bf a317 1bbf f250 29bf
000000a0: 7234 943e d8bf b1be f1b8 11be eb5a d0be
000000b0: a7f1 03be c1d0 febe ce8f ecbe 2d2f 703e
000000c0: 7331 57be 8a80 df3e 554a 68be 34ca 04bf
000000d0: c782 ffbd 4f7f afbe 7e86 5dbe 6154 2cbf
000000e0: ae8e ca3e 8f0d fcbe 90f7 b53e 9549 a43e
000000f0: 7d53 013f ecd9 0abf 4330 023f 8427 abbe
00000100: 6657 863e 77ff 293f 673c ccbd 2330 b3bb
00000110: 6ab4 26be fa25 17bf 4fbe ad3e 7db3 33bf
00000120: eac0 e03e 7671 073f ee30 2b3f 87cb 2abe
00000130: abbb 14bf 64cb 223e 0300 c83e 8d2b 34bf
00000140: 8e5a 24be ac06 d9be 7152 7dbd 4833 b2be
00000150: 5bfd 93be 62dd 65be fe05 2cbf 1987 143f
00000160: 11c1 173f b02b e3bd 39eb a4bd 54c1 93be
00000170: ca78 23bf 7028 30bf 038e 863e a4c6 c6be
00000180: 0fbf e8be b4fa 61bd 3620 71be 0a41 6abe
-0.6422345 -0.26094908 0.59547544 0.27545696 -0.035169773 -0.42631873 -0.43261153 -0.6334028
-0.23049024 0.23879291 0.45086658 0.3264693 -0.6250428 -0.42522746 -0.111593224 0.6840194
0.10228829 -0.18311997 0.29254085 -0.26932392 -0.45767885 0.5161082 -0.3215227 -0.1417514
-0.70343286 0.4732458 0.5357286 0.25770378 -0.49304733 -0.69787186 -0.57429725 0.5272897
0.33948603 0.59503347 0.37043193 0.17896318 -0.006924474 -0.53775895 -0.6058294 -0.6613914
0.28946263 -0.34716678 -0.14230706 -0.40694365 -0.12885152 -0.49768642 -0.46203464 0.23455496
-0.21014957 0.43652755 -0.22684605 -0.5187104 -0.12476116 -0.34276816 -0.21633336 -0.6731625
0.3956198 -0.49229094 0.35540438 0.3208739 0.5051802 -0.5423877 0.5085489 -0.33428586
0.26238555 0.66405433 -0.09972458 -0.005468385 -0.1627976 -0.5904232 0.33934256 -0.7019575
0.43897182 0.529075 0.66871536 -0.16679202 -0.5809886 0.158979 0.3906251 -0.70378953
-0.16050169 -0.42387903 -0.0618462 -0.3480475 -0.28904232 -0.22447732 -0.67196643 0.5801864
0.5927897 -0.11092317 -0.08052678 -0.28858435 -0.63856184 -0.688117 0.2628022 -0.38823426
-0.45458266 -0.05517073 -0.23547444 -0.22876373

weight f4 [100, 100]
00000000: 3393 523b 33c3 adbc c707 0dbd 701e 44bd
00000010: ffab a6bd edb9 ab3d aaea 23bd 3a12 d93c
00000020: 031e 0ebd 7323 053c 65ef be3d 47b6 3c3d
00000030: c87a b1bd 4792 223d aa67 c23d 9384 d73c
00000040: 904d 893d e7e8 c93d e70c 7bbc 5307 aa3c
00000050: db57 8ebd 80d1 a8bc ebab 973d d0fa 513d
00000060: 5f98 81bd df39 a4bd f0f3 8bbd d01c cabd
00000070: 1b08 9ebd 0796 cabc 0037 8a3d 9a1e 893c
00000080: a2c5 9bbd a34b a4bd 10c4 4b3d b556 98bd
00000090: 67bb 49bc d37c 443d 5d91 3dbd a7a6 32bc
000000a0: 1a9d 0ebc 20cf c1bc 2dae 4fbd 0b91 b6bd
000000b0: 308d a5bd 3a53 5bbd b7cd c53d c3d7 45bd
000000c0: 6887 89bd c091 c63c adc7 e13c 806c 603d
000000d0: 33ac 9b3d 7d18 643d 350f cbbd b34e 113c
000000e0: d01d 783d 0d6e 17bc 675e 71bd 773e c33d
000000f0: aa33 19bd 1a34 69bd 73a3 b8bd 805e 923b
00000100: e081 353d 2757 b53c 20ff a13c 5851 9bbd
00000110: 9742 bfbd 33cf e63a 5fbe ba3d 974e 6c3d
00000120: b07b 6ebd a7ad 54bc a7f9 96bd c399 45bd
00000130: 135b 943c 000b 5f3d 68a6 a93d 3307 bcbd
00000140: b2ee 883d 9f71 90bd bd61 193d a04f ad3d
00000150: 670e b83a 3254 ba3d 0a80 aebd 5373 1cbd
00000160: 80e6 6e3d 337a b2bc c0b0 a7bc c7b7 2abd
00000170: 7f2b 8d3d fde8 483d a041 033d 2a2e 66bd
00000180: 0f3f a6bd da35 313c 2db6 f23c 001e 3dbd
00000190: d335 e5bc b850 8a3d b383 023c 00d8 933b
000001a0: 079b c9bc fb76 b9bd 9290 c0bd 83cb 43bd
000001b0: 5d35 50bd 8739 ff3c 5a7a eebc 9d3e 20bd
000001c0: 2f43 c33d 4dac 0e3d 9d00 923d e74a 46bd
000001d0: da4e 27bd 6a8b 163d 0274 88bd ebe0 85bd
000001e0: b344 9ebb cad0 15bd ab87 99bd 3af5 723d
000001f0: 4bb1 a43d b3e4 843c 33a2 8ebc 62b3 bdbd
00000200: 3331 15bd 7a8e d03c 9a23 413d 5a1f 4fbc
00000210: c0ef 21bd 633d 643d 481a a3bd f26f 813d
00000220: 03e8 1ebd 679c c83a 0de3 a1bc 4da3 463c
00000230: 9a8f f7bc 65ea 943d 0060 2abb e5dd 9f3d
00000240: 45e9 c43d ad8d 47bd 4a67 95bd bb4f a43d
00000250: f07b a03d df5f 9cbd b34e fdbb 6bf5 c9bd
00000260: 2ba6 a7bd ed38 9e3c 80ef d93c a7a7 ad3c
00000270: 13f5 debc a5f1 bc3d 4d41 6a3c e0b2 71bd
00000280: 1a83 b9bb 1aba c43c 5d70 0f3d 67cf 90bd
00000290: 8a83 193d d341 51bd 352d aabd 00ba 5fbd
000002a0: d382 c53d 2b13 af3d 2d65 b73d 9770 703d
000002b0: 50b7 9a3d a74c 5bbc 935f 61bd caa8 4c3d
000002c0: 673f 54bd 6836 8abd 9acc 02bd adea ab3c
000002d0: 57dc 523d a317 1fbd a713 71bd 4002 5d3c
000002e0: 8d6e 71bd 5f56 85bd 3a81 553d ed9c 89bc
000002f0: a724 bb3d d339 c73d fa06 f53c 8df7 0c3d
00000300: 00a6 bc3c 3345 cd3a 6754 eebb 9a25 b43a
00000310: 6df4 183d c56a be3d 9a4d d4bc f724 2dbd
00000320: a761 c6bc 40e3 45bd b34b 8b3c 65df 983d
00000330: 2326 a03d cd0e 3c3d 02b8 96bd 93d5 5bbd
00000340: d3fc b3bc 93ff 96bc 33c1 063c 2500 bcbd
00000350: c0f8 fe3c 783c 9cbd 0b96 81bd 6344 aabd
00000360: 3f72 b23d ebee c1bd 8b7e 9a3d cd4f 5cbb
00000370: 408b 3ebc 1719 803d f36e 17bc f070 803d
00000380: cf12 943d 37cf b1bd 879b 1d3d d3a5 9a3c
00000390: 3a23 b03c 4031 6f3c 9a13 e03c 830b 45bd
000003a0: 679e 51bc a795 c23d 4398 893d 6735 76bb
000003b0: e89e c0bd 679d 8f3b a076 8bbd a88a a63d
000003c0: baa9 78bd 1a97 ecbb c0d0 b5bc a0c7 913c
000003d0: f3b8 c03d f3ad 1b3c c039 6d3d 5ff8 9e3d
000003e0: 5b56 a53d ba74 0dbd 3338 b7bc d766 453d
000003f0: 8088 dfbc 0acd 3f3d 00f8 b2bc f5e7 8abd
0.0032131195 -0.021211242 -0.034431245 -0.04788059 -0.081382744 0.08385072 -0.040018715 0.026497949
-0.03469659 0.0081261275 0.09323005 0.04607227 -0.08665997 0.039690282 0.094924286 0.026308334
0.06704247 0.09858876 -0.0153229 0.020755446 -0.06950351 -0.02060771 0.074058376 0.051264584
-0.063278906 -0.080188505 -0.06833637 -0.09868777 -0.0771639 -0.024729742 0.06748772 0.016738225
-0.07606055 -0.08022239 0.049747527 -0.07438413 -0.012312747 0.047970604 -0.046281207 -0.010903991
-0.008704448 -0.023658335 -0.050703216 -0.089143835 -0.0808357 -0.053546168 0.096583776 -0.04830147
-0.0671528 0.02423942 0.027561033 0.054790974 0.07601204 0.055687416 -0.0991501 0.008868861
0.060575306 -0.009242547 -0.05892792 0.095333986 -0.037402786 -0.056934454 -0.090155505 0.0044668317
0.04431331 0.022136284 0.019774973 -0.075838745 -0.09338873 0.0017609358 0.09118342 0.057692137
-0.058223426 -0.012980855 -0.07371836 -0.04824234 0.018109834 0.05445385 0.082836926 -0.09181061
0.066861525 -0.070529215 0.037446726 0.08462453 0.0014042378 0.0909809 -0.08520515 -0.03819592
0.05832529 -0.021786785 -0.020470023 -0.04167917 0.06893062 0.04905032 0.032045007 -0.05619637
-0.08117496 0.010816062 0.029627884 -0.04617119 -0.027979767 0.06753677 0.00796597 0.004511833
-0.024610056 -0.09055897 -0.094025746 -0.047801506 -0.05083214 0.03115536 -0.029111076 -0.039122213
0.09534299 0.034832288 0.07129023 -0.048411276 -0.040846683 0.03675405 -0.06662752 -0.0653704
-0.004829967 -0.03657607 -0.0749658 0.059315898 0.080416285 0.016222334 -0.017411327 -0.0926273
-0.036423873 0.025458563 0.047153093 -0.012641752 -0.039535284 0.055722605 -0.07963997 0.0632018
-0.038795482 0.0015305401 -0.019761587 0.012123895 -0.030219842 0.0727127 -0.0025997162 0.07805995
0.09614805 -0.048719097 -0.072950915 0.0802302 0.07836139 -0.076354735 -0.007730329 -0.09861263
-0.08185991 0.019314254 0.02660346 0.021198107 -0.02721647 0.092257775 0.0142977955 -0.05900848
-0.0056613805 0.024014521 0.035019267 -0.07070809 0.03747896 -0.051088165 -0.08309404 -0.054620743
0.09644093 0.08548578 0.089548446 0.058701124 0.07554495 -0.013384975 -0.055022787 0.049965657
-0.051818278 -0.067486584 -0.031933405 0.020985926 0.051479664 -0.0388409 -0.058856633 0.013489306
-0.05894332 -0.065106146 0.052125193 -0.01679846 0.0913785 0.09727826 0.029910553 0.03441577
0.023028374 0.0015660882 -0.007273245 0.0013744116 0.037342478 0.092977084 -0.02591591 -0.04227158
-0.024216486 -0.048312426 0.01700387 0.07464484 0.07819774 0.045912553 -0.073593155 -0.053670477
-0.021971142 -0.018432414 0.008224773 -0.09179715 0.031124473 -0.07628721 -0.063274466 -0.08313825
0.08713197 -0.09469398 0.075436674 -0.00336169 -0.0116298795 0.062547855 -0.009242761 0.06271541
0.0723015 -0.08682101 0.0384784 0.0188779 0.021501172 0.014599144 0.027353097 -0.04810668
-0.012794114 0.095012 0.06718495 -0.0037568451 -0.09405309 0.0043827775 -0.06809735 0.08131915
-0.06070874 -0.007220161 -0.022194266 0.017795384 0.09410276 0.009501922 0.057916403 0.07762217
0.080731116 -0.034535147 -0.022365665 0.04819378 -0.027286768 0.0468264 -0.021846771 -0.067825235

bias f4 [100]
00000000: 6357 33bd 6d91 19bd eaaa 023d 589e b33d
00000010: 2dbb 023d e772 0cbc 4a0d 053d 3bba c9bd
00000020: 0217 8cbd 933b 2cbd d064 b9bd eaab 9abd
00000030: b581 9dbd 132c eb3c e72e f83c 9ad8 1dbb
00000040: 0058 bdbc cdb3 303b 2080 773d bb35 9abd
00000050: 2880 913d 8d25 323d c0fa 0ebd f0b0 8f3d
00000060: 33b3 adb8 5ab5 3bbd e58f b83d 801f f23c
00000070: 478e 9a3d 334d debc a37e afbd a33c a43d
00000080: b390 bd3b c085 423d da55 d4bc 20bb 413d
00000090: 4fd2 a1bd 332c 673b 2d81 9b3d a7f9 dbbc
000000a0: d2e6 af3d 4aa1 163d 97ea 493d ca5d ca3d
000000b0: e751 c7bc fab6 bebc f3c8 803d 1049 4fbd
000000c0: bb00 97bd 288a 853d fab0 b2bd d0fc 41bd
000000d0: 937f c63c cd44 713c 7750 78bd cd3f cfbc
000000e0: 7876 833d 60b4 84bd 43f2 6a3d da73 2fbc
000000f0: bd9d 12bd d517 c3bd a0de d6bc 0367 a83d
00000100: f363 60bd cb89 a2bd 4da8 ffbb 352e 913d
00000110: b337 debc d7c3 c83d db43 c53d 47a2 bb3d
00000120: 3748 6abd 3fc9 91bd 85ef bfbd f34a 9fbc
00000130: bf5f 85bd 10d2 3e3d 5ac3 133c ed6d a23d
00000140: 9afc bdbd 2a19 acbd d371 98bc 00e9 d73c
00000150: 0b6e ac3d 00fb 08bc cb04 af3d 27c5 ddbc
00000160: 2749 67bc 7ab7 1dbd e714 2ebd 072b 1bbd
00000170: 9208 b1bd 4d1f 49bc c01c 0abd 3a98 84bd
00000180: 17e9 97bd df7e c5bd f391 b7bc bfbc a6bd
-0.04378451 -0.037492204 0.031901278 0.08770436 0.031916786 -0.008572317 0.032483377 -0.09849974
-0.06840326 -0.042049002 -0.090524316 -0.07552321 -0.07690755 0.02870754 0.030295802 -0.0024085403
-0.02311325 0.0026962638 0.060424924 -0.075297795 0.07104522 0.043492842 -0.034907103 0.0701617
-8.282661e-05 -0.045827247 0.09011821 0.029556036 0.075466685 -0.02713642 -0.08569076 0.08019378
0.0057850718 0.047490835 -0.025919843 0.047297597 -0.07901441 0.0035274148 0.07592998 -0.026852442
0.08588947 0.03677491 0.049295988 0.0988117 -0.024331046 -0.02328061 0.06288328 -0.050606787
-0.07373186 0.06520492 -0.08725162 -0.04736024 0.024230754 0.014725876 -0.060623612 -0.025298977
0.064190805 -0.06479716 0.057359945 -0.0107087735 -0.035794962 -0.0952603 -0.026229203 0.08222773
-0.05478282 -0.07936438 -0.0078020454 0.070888914 -0.027126169 0.098029785 0.09632083 0.09161811
-0.057197776 -0.07118463 -0.093718566 -0.019444918 -0.06512403 0.04658705 0.009018743 0.07931123
-0.092766955 -0.08403237 -0.018608963 0.02635622 0.084194265 -0.008360624 0.08545836 -0.027071549
-0.014116562 -0.038505055 -0.042500403 -0.03788283 -0.08644213 -0.012275529 -0.033718824 -0.064743474
-0.07417505 -0.09643339 -0.022408461 -0.08141469

weight f4 [100, 100]
00000000: 7822 b83d ade6 dbbc 4733 dc3c 37d4 92bd
00000010: a72d 273c b57a c0bd 1766 383d 7070 413d
00000020: a704 c7bd 479c 323d f396 503c fdd1 7fbd
00000030: 9087 3bbd 6d4d c93d 930d 55bd 0d30 b33d
00000040: 1adb a43c 40aa 3b3d fd2a 4ebd 5325 053d
00000050: 0d64 b03c 6256 a33d 0386 cabd 4deb 14bd
00000060: 3331 233b 98fe 92bd 339c 8b3c 7b0c 843d
00000070: 70d6 763d 4035 53bd 1a92 253d d004 95bd
00000080: f39e 7e3d b263 a7bd 83ab b9bd bd26 0e3d
00000090: c0aa 1abc c7ee c93c 7890 be3d b830 c43d
000000a0: 0df4 663d 65c7 b9bd 2741 7cbc 9a19 333c
000000b0: c36b c7bd 6545 ab3d 8f64 863d 3336 3dbd
000000c0: d3f6 aabc 7a96 6dbd ba8a 1d3d 9348 8d3c
000000d0: 2d01 0ebd c3fb 5a3d 6015 b1bc a7f2 2f3c
000000e0: 3dcc 8d3d 1772 40bd e7e2 bcbd 5d12 5d3d
000000f0: c5d7 85bd 47d8 1a3d 1349 f6bc 6b7a 893d
00000100: 3343 79bb 477f 3abd f379 90bd d29e 893d
00000110: 2a25 80bd 8d38 e83c 359f 9c3d e782 a4bd
00000120: 75e3 abbd 2725 273c bac9 20bd 3857 96bd
00000130: 976c 873d ea84 bebd 3ac1 3abd b71d aabd
00000140: 2d84 d83c 274f 0d3c 3ada 2a3d 537d 2b3d
00000150: cd64 cfb9 da01 f6bc bf17 b53d cd44 883b
00000160: 7a09 c33c 72a3 a8bd 1bb9 c8bd e710 48bd
00000170: d3a1 56bd 4d58 ed3c 3a0e 36bd e71a 2b3c
00000180: 38c9 bd3d a0a7 f1bc 2d4b d13c cdbe a03a
00000190: 45c6 863d 2a25 333d 803c 98bb d308 603d
000001a0: 80b7 a6bb 9a43 8bbc 8aa8 1fbd 7f12 a7bd
000001b0: 2713 ab3d 18c8 81bd dd3c c3bd 10b8 37bd
000001c0: cd7a a53c 73af 14bc 1377 3a3d 40ac 6a3d
000001d0: e3e3 703d 2fd5 abbd fafd 263d 8ac0 4a3d
000001e0: d33a 63bd cdf4 fd39 1a91 753c a772 4d3c
000001f0: dacb 5b3d 85e0 ad3d 7db4 c43d 276a b73c
00000200: 5788 6f3d 3020 2f3d 8d97 5dbd edf8 883d
00000210: cdd1 e8bb 3328 273d e5ec 87bd d3d9 a33d
00000220: 1ad5 b63c a7a3 b93c 9f30 b6bd 3364 0ebc
00000230: fd3a 0fbd e25a c13d 9f7f bbbd ba28 cabc
00000240: 5d28 4bbd af76 94bd 3d8a 1d3d 4a66 8dbd
00000250: 279e 413d 8da8 443c 87d9 58bd 9a73 3abc
00000260: 5a15 0e3c 5a8b 36bd fb95 83bd 47d3 66bd
00000270: 3aa7 c53c 3275 b4bd 3af5 803d 5780 863d
00000280: a851 bc3d 3246 ad3d b032 66bd 4dbc 31bd
00000290: 13e6 953d 80f4 53bc fac9 96bd e334 44bd
000002a0: 75c2 8f3d b0ec 68bd 4311 103d 3d00 abbd
000002b0: 5f3c 873d fa4f e13c 5044 8d3d 0084 5f3b
000002c0: 4aeb 4f3d 67d4 a73d a7ae 4ebc 4dc7 9abd
000002d0: c381 90bd 5d27 703d 1399 82bd 3846 b3bd
000002e0: 4768 adbd cd65 35bd cdf9 973c 4d92 b9bd
000002f0: f3cb 3dbd 8f13 c43d 0055 8bbc d738 0abd
00000300: 2db9 413d af87 a8bd 07ea 9fbd f341 6a3c
00000310: aa7b 013d 23d2 c9bd 63f0 b33d 2d7e 1fbd
00000320: 5a4b 7a3c 1b95 913d 67c8 1c3d 1a5d fe3c
00000330: b8da babd 4213 bfbd 6754 183d 338c 733b
00000340: c082 7b3d 20fa 4c3d 4d4d a4bd 47c7 963c
00000350: 72aa a0bd 776b 62bd 3a20 e13c cd29 b7bb
00000360: 2bcb 82bd e7e3 0a3d 331f 8e3d f745 c9bd
00000370: 2819 c03d 531c 623d 9a18 0abc 0899 c6bd
00000380: d364 2dbd fa01 fa3c 8382 2ebd 70a3 06bd
00000390: ed26 29bd 8515 b03d 8552 ad3d f8bc 9fbd
000003a0: 7abb fcbc 2780 b93d 4dbd bcbb c06c 47bd
000003b0: 8d1f 463c 530b a23d 277f 50bc 8340 c1bd
000003c0: 57ea 08bd 4dda 4b3d 0015 72bc 50b3 903d
000003d0: 63de 0c3d 67e6 653a 9a75 1c3d 6727 5dbc
000003e0: ca90 afbd bf83 afbd e017 a1bd 5a7a 82bc
000003f0: f314 94bd 8d1b 703c e7dc 3b3c 27d4 9b3d
0.089909494 -0.026843393 0.02687992 -0.07169383 0.010203755 -0.093984045 0.045019235 0.04722637
-0.09717684 0.04360607 0.012731302 -0.06245612 -0.04578358 0.09829221 -0.0520149 0.08749399
0.020124007 0.04581666 -0.050333966 0.0325063 0.021532083 0.079754606 -0.09888842 -0.036357213
0.0024901151 -0.07177466 0.017042255 0.06447693 0.060263097 -0.051564455 0.040422536 -0.072763085
0.062163305 -0.08173312 -0.090659164 0.034704912 -0.009440124 0.02464999 0.09304899 0.09579605
0.05638509 -0.090712346 -0.015396393 0.010931397 -0.09737351 0.08362845 0.06562149 -0.046194267
-0.020869648 -0.058004834 0.038462378 0.01724652 -0.03466909 0.053462755 -0.021616638 0.010739005
0.06923721 -0.046983805 -0.09222966 0.05397259 -0.065352954 0.037803914 -0.030064141 0.067128025
-0.0038034439 -0.045531537 -0.0705451 0.06719746 -0.062570885 0.028347278 0.07647554 -0.0803278
-0.08392993 0.010201729 -0.03925488 -0.073408544 0.06612509 -0.09302695 -0.04559443 -0.08306449
0.026430214 0.008624828 0.041712023 0.041867565 -0.0003955722 -0.03003018 0.0884242 0.0041585923
0.02380823 -0.082343 -0.09800931 -0.048844244 -0.05240042 0.02897277 -0.04444716 0.010443426
0.09266895 -0.029498875 0.025548542 0.0012263894 0.06580786 0.043736614 -0.004645884 0.054695915
-0.005087793 -0.017000008 -0.03897909 -0.08157825 0.083532624 -0.06336993 -0.09533093 -0.04485327
0.020200158 -0.0090750335 0.045523714 0.057293177 0.05881108 -0.08390271 0.040769555 0.049500026
-0.05547602 0.0004843831 0.014988208 0.012539542 0.053661205 0.08490089 0.09604738 0.022389485
0.058479633 0.042755306 -0.05409961 0.06688104 -0.0071050883 0.04080982 -0.06636981 0.08000531
0.022318412 0.022661043 -0.088959925 -0.008690882 -0.034968365 0.09441163 -0.09155201 -0.024677623
-0.04959904 -0.072491996 0.038461912 -0.06904276 0.047269966 0.012003076 -0.052941825 -0.011380101
0.008672083 -0.04456649 -0.06425091 -0.056353834 0.024127591 -0.08811416 0.06296773 0.06567448
0.09195262 0.08460654 -0.056200683 -0.04339247 0.07319274 -0.012936711 -0.07362743 -0.047902
0.070195116 -0.056866348 0.035172712 -0.08349655 0.06603312 0.027503956 0.06897795 0.0034105778
0.0507615 0.081948094 -0.012614883 -0.07557545 -0.07056 0.05863129 -0.06376853 -0.087536275
-0.08467155 -0.044286538 0.018551731 -0.09061108 -0.04633708 0.09574043 -0.017008305 -0.033745613
0.047295738 -0.082290046 -0.07808309 0.01429795 0.031612076 -0.098545335 0.087860845 -0.03893869
0.015276754 0.07108518 0.038277056 0.031050254 -0.091237485 -0.09329845 0.037189867 0.0037162423
0.06140399 0.050043225 -0.080225565 0.01840557 -0.0784501 -0.055278268 0.027481187 -0.0055897
-0.063864075 0.03390875 0.069395445 -0.09827798 0.09379798 0.055202793 -0.008428717 -0.09697157
-0.04233248 0.03051852 -0.042604934 -0.03287071 -0.04129689 0.085978545 0.08463005 -0.07799715
-0.030851115 0.09057646 -0.005759871 -0.048687696 0.012092483 0.07912316 -0.012725628 -0.09436133
-0.03342661 0.049768735 -0.014775515 0.07065451 0.034391772 0.00087699894 0.03819809 -0.013498164
-0.08572538 -0.085700504 -0.07865882 -0.015927482 -0.07230558 0.014655006 0.011466241 0.07608824

bias f4 [100]
00000000: 1ab7 35bc bd27 b0bd fd38 b5bd b7de 64bd
00000010: 2a88 7dbd 5070 9d3d b06e 28bd a063 8abc
00000020: 6d9c 953d 9076 3fbd 67aa af3b c222 b3bd
00000030: dd40 973d 4f74 c9bd e082 773d b38d 08bc
00000040: 500d 30bd 4d93 afbc 47c0 9dbd 90ba 04bd
00000050: 230c 903d 4d90 a73d aa2b 6e3d d355 15bd
00000060: a064 cbbc ad29 1f3d 65f4 c4bd 05a5 b7bd
00000070: 87df c1bd 9533 c53d ad12 343d 0dbe 48bd
00000080: adb8 debc 4d36 923c 8012 fd3c c05d 783c
00000090: cd4e 353d 9ab4 7d3c fa89 e7bc f3c1 eb3c
000000a0: e0f9 7d3d 2761 56bc da1c cc3c c71d ccbd
000000b0: a819 b9bd 3a00 c0bd c07b 043d 83a9 76bd
000000c0: 1031 383d 6758 ba3b 27fd 0f3d ffbf aabd
000000d0: 408e b33d e7b0 b3bd 5a13 ffbc 5a6a 21bc
000000e0: b332 9f3c 9a09 6cbc ef38 c9bd 7bd1 80bd
000000f0: f7b0 62bd 87e4 ca3d 803a db3c 7250 823d
00000100: e042 2bbd 2d82 783d 1318 32bd a705 ef3c
00000110: dd64 1d3d 2ba9 c63d e72d e33c 1aa2 e8bb
00000120: 8360 a83d 2deb 8c3d 4b82 89bd 50ab 31bd
00000130: 005a 8c3d 80bc 09bd 7a9c 2bbd 1a86 68bc
00000140: 23d2 763d 253c b0bd 2725 6a3d b364 143c
00000150: f056 403d 8a32 9bbd 407e 1abc 83ea a43d
00000160: f06f 37bd cdfa 0b3c b3d4 1d3c 4d16 66bd
00000170: b82f c43d bf5e c6bd 0095 353c c095 9fbc
00000180: 7ac6 b63d e7f6 723d 68fa a5bd c03c 37bc
-0.011091018 -0.086013295 -0.0884876 -0.05587646 -0.061897434 0.076874375 -0.041121185 -0.016893208
0.073052265 -0.04674393 0.0053608897 -0.08746864 0.073854186 -0.09836637 0.060427547 -0.008334565
-0.042981446 -0.021432543 -0.077026896 -0.032404482 0.07033565 0.0818182 0.05814711 -0.0364588
-0.024828255 0.038858104 -0.09616927 -0.08967022 -0.094664626 0.09628979 0.043963123 -0.04900937
-0.02718767 0.017848158 0.03089261 0.0151590705 0.044264603 0.015484953 -0.028264035 0.028779006
0.062005877 -0.013084686 0.024916101 -0.09966617 -0.09038097 -0.09375043 0.03234458 -0.060220253
0.044968665 0.005686808 0.035153534 -0.083374016 0.087673664 -0.08773976 -0.031137157 -0.009852016
0.019433355 -0.014406586 -0.09825312 -0.06289955 -0.055344548 0.099068694 0.026761293 0.06363
-0.041811824 0.06067102 -0.04347999 0.0291775 0.03842627 0.09700235 0.027731849 -0.007099402
0.08221533 0.06880794 -0.067143045 -0.043376267 0.06853104 -0.033627033 -0.041897275 -0.014192129
0.060258996 -0.08605222 0.057164337 0.009057212 0.04695791 -0.07577999 -0.009429514 0.08052542
-0.044784486 0.008543682 0.009633231 -0.05617361 0.09579414 -0.0968604 0.011082888 -0.019480586
0.08924575 0.059317496 -0.08104402 -0.0111839175

weight f4 [1, 100]
00000000: b5bc b83d 67b7 163c 670c 493d dbe7 a6bd
00000010: 4d60 ddbc efaa c8bd f290 93bd 3204 92bd
00000020: ed04 8abc 6780 553c cbf0 c7bd 8776 0fbd
00000030: cd74 84b9 c8f5 cb3d 1379 e9bc 1f68 86bd
00000040: 4078 8d3c 4d8c 0e3c 33bb 683a 00be b0bc
00000050: e742 c0bb ad89 9e3d 9087 a0bd 9766 293d
00000060: 338d 30bd 4db4 ed3c 33ef 56bd bd08 a0bd
00000070: aa5d 2c3d 136a e53c a0b7 483d 77a3 14bd
00000080: c044 9f3c 3aea 923d a700 9a3d f5a2 843d
00000090: 2da0 a7bc 432e 53bd 7349 0a3c d255 89bd
000000a0: baad efbc 8064 503c b763 113d e73b 2abc
000000b0: 407f 1c3d d816 afbd 73ae 1b3d f3e0 85bd
000000c0: d77b a7bd 27ce 293c 2878 b43d b317 6e3c
000000d0: a3d4 113d 3357 5bbc 1ae4 af3b 3314 313c
000000e0: cd6c 35bd 55f6 a53d 4395 7fbd fd42 533d
000000f0: c2ec 893d e3f8 56bd 7d98 b03d 7a55 253d
00000100: 1a62 b23d 83b3 233d 5dcd 70bd 802b 7b3d
00000110: 137a a53d 6718 7b3d 4d1c 133d 60bb 893c
00000120: 00ba e23b 0878 c93d 20a6 47bd ad5f b83c
00000130: 337a 1fbb afb7 b83d dd83 693d 8778 7dbd
00000140: ba69 3a3d 3a21 05bd 6faa 8e3d 579e acbd
00000150: eddd b8bd 2d73 363d 2006 e4bc 2066 d33c
00000160: 9b8f a93d ad2f 8ebd 1a7b 4ebc 20f0 10bd
00000170: d7a6 5d3d 6721 1bbd 92e6 ac3d 67c5 593b
00000180: edd6 ec3c 57b8 4abd cde5 80bb 1d8b b7bd
0.09020368 0.009199 0.049084093 -0.08149692 -0.027023459 -0.09798228 -0.072053805 -0.071297064
-0.016848052 0.013031102 -0.097627245 -0.035025146 -0.00025264025 0.099589884 -0.028500115 -0.06562828
0.017269254 0.0087004425 0.00088779925 -0.021574974 -0.0058673504 0.07741103 -0.078383565 0.041357603
-0.043103408 0.029016638 -0.052474212 -0.07814167 0.042081513 0.028004682 0.049003243 -0.036288705
0.019441962 0.071735814 0.07519656 0.06476394 -0.02046212 -0.05155779 0.008440363 -0.06705822
-0.029257644 0.012719274 0.035495486 -0.010390258 0.038207293 -0.08549279 0.038008165 -0.06537046
-0.081779175 0.010364092 0.088119805 0.0145320175 0.035603177 -0.013387489 0.005367768 0.0108080385
-0.044293214 0.08103625 -0.062398206 0.051577557 0.06734611 -0.05248345 0.08622835 0.04036472
0.08710118 0.039966118 -0.0587896 0.06132078 0.080799244 0.06130257 0.03591566 0.01681298
0.0069191456 0.09837347 -0.048742414 0.02250656 -0.002433431 0.0901941 0.05701052 -0.061882522
0.045510985 -0.03250239 0.069661014 -0.084286384 -0.09026704 0.044543434 -0.027834952 0.025805533
0.08279344 -0.06942687 -0.012602592 -0.03538525 0.05411419 -0.03787365 0.08442415 0.0033229233
0.028911078 -0.049492206 -0.0039336444 -0.08962081
